…
   layers.Dense(10, activation='relu'),\n","      layers.Dropout(.1),\n","      layers.Dense(1, activation='linear')\n","  ])\n","dnn_model.compile(loss='mean_absolute_error',\n","                  optimizer=tf.keras.optimizers.Adam(0.01))\n","dnn_model.summary()\n"],"execution_count":27,"outputs":[{"output_type":"stream","text":["Model: \"sequential_2\"\n","_________________________________________________________________\n","Layer (type)                 Output Shape              Param #   \n","=================================================================\n","normalization_2 (Normalizati (None, 13)                27        \n","_________________________________________________________________\n","dense_6 (Dense)              (None, 150)               2100      \n","_________________________________________________________________\n","dropout (Dropout)            (None, 150)               0         \n","_________________________________________________________________\n","dense_7 (Dense)              (None, 15)                2265      \n","_________________________________________________________________\n","dropout_1 (Dropout)          (None, 15)                0         \n","_________________________________________________________________\n","dense_8 (Dense)              (None, 10)                160       \n","_________________________________________________________________\n","dropout_2 (Dropout)          (None, 10)                0         \n","_________________________________________________________________\n","dense_9 (Dense)              (None, 1)                 11        \n","=================================================================\n","Total params: 4,563\n","Trainable params: 4,536\n","Non-trainable params: 27\n","_________________________________________________________________\n"],"name":"stdout"}]},{"cell_type":"code","metadata":{"colab":{"base_uri":"https://localhost:8080/"},"id":"XPnVH-j9mN81","executionInfo":{"status":"ok","timestamp":16073
…
